2017 Fall/EE5184 - Machine Learning/homeworks/hw1/model.npy (npy, 520 bytes, 1 tensors)

array f8 [55, 1]
000000 4d 5c 44 b7 58 45 b3 3f 95 18 28 a6 36 8c 64 bf
       0.07527689432423408 -0.0025082652439350575
000010 84 9a a4 96 d8 38 81 3f 32 7b 57 a1 97 a0 8d bf
       0.008409206483134264 -0.014466461764582304
000020 30 17 e0 e0 c1 f9 1d 3f c8 39 7b 7f 95 49 79 bf
       0.00011434789504968508 -0.006173690773449932
000030 00 e4 b6 3f 38 09 74 3f 65 27 64 d0 78 a8 97 bf
       0.004891605112271158 -0.02310360690993409
000040 1a b7 76 74 c1 40 86 bf dd c8 a4 8b 31 04 b4 3f
       -0.0108656991640959 0.0781889882971742
000050 dd 42 70 17 10 42 92 3f f2 c5 87 2e b9 a1 87 3f
       0.01783013480241179 0.011538931591505073
000060 8b 5f d7 93 16 1c 6a bf 0e 9b 8a 76 22 4a a2 bf
       -0.003187221619310015 -0.035721852274312224
000070 b9 82 d6 b3 f9 c0 b0 3f 22 d7 81 4e 29 9a c2 3f
       0.06544457092833057 0.14532963116988024
000080 37 be c7 8b 20 a9 ce bf 4d 69 75 c9 e7 d9 c3 3f
       -0.23953635049064 0.15508744561049995
000090 8e d6 8e a5 c9 0c e8 3f 75 b7 09 10 b8 36 c3 bf
       0.7515609963945324 -0.15010739119628239
0000a0 b0 c7 c8 42 e7 75 a2 3f e5 53 48 ae 83 cc a0 bf
       0.036055781271343235 -0.03281032087776462
0000b0 c2 0d 92 67 c6 c6 a4 bf 4a fc bc 51 7a e8 67 bf
       -0.040579033034215964 -0.002918471245635189
0000c0 0c a8 4a 53 42 f2 70 bf b8 1c 5c f3 f3 5d 96 3f
       -0.004137286265782702 0.021842776993278717
0000d0 dd 12 7f b8 3e 35 c8 3f 2b 00 6a 57 84 fe e3 3f
       0.1891249085293997 0.6248189647012671
0000e0 fb b8 9f 41 7f 4a 1c bf f0 d9 c7 d7 d1 1e 18 3f
       -0.00010792161665993179 9.201198367479019e-05
0000f0 77 7e 5e 68 33 f5 18 3f aa 99 a7 fe e1 5a 18 bf
       9.520651118898904e-05 -9.290699350792431e-05
000100 b0 df 36 7b 2e 21 1f 3f 7e 56 be a2 42 2b 31 bf
       0.00011875005912187378 -0.00026197792862468056
000110 e0 b0 59 68 95 9b 26 3f 6b 1b 4a 17 ef aa 11 bf
       0.00017248343299359255 -6.739696784495228e-05
000120 8e 18 6b 4a 5f 03 08 bf a6 1d 4e 53 cd ab 3e bf
       -4.5801492253570294e-05 -0.0004680038721791242
000130 b3 91 fa a2 4e 70 3a bf dd 56 31 af 23 7f 63 3f
       -0.00040342254485839084 0.00237996072386691
000140 13 66 47 e6 9b 84 5f bf c4 86 a0 ba ee ef 54 bf
       -0.0019237062889402342 -0.0012779074991233078
000150 93 85 af 4f 08 9d 70 3f f3 80 df ed 98 cc 6d bf
       0.00405600782957673 -0.0036375986955904326
000160 e0 f3 48 6c b7 ba 64 bf dd 9c f6 b5 3c 4b 72 3f
       -0.0025304396133649515 0.0044662829890633445
000170 51 12 90 4e 0e 34 69 bf 64 b8 98 53 b7 c4 76 3f
       -0.0030765799933781053 0.00555869686063035
000180 51 1b 18 36 50 fb 7a 3f 44 0c 7a b5 92 10 8c bf
       0.0065873273138155755 -0.013703485644560705
000190 95 50 06 f3 b3 31 61 bf 8b f2 0e 75 e0 0a 75 3f
       -0.0020988955149708424 0.005137326036614663
0001a0 d6 35 1a 6a f5 f3 92 bf 0b 8e 28 54 3a 06 8d bf
       -0.018508753396010956 -0.014172034924803808
0001b0 99 2f 7b 9d a4 6b 85 bf
       -0.010459219032234833
